checkpoint/test/mnist/a2c/lr0.0007_max_steps29_seed1_window5_model.pt (torch_old, 815520 bytes, 13 tensors)

base.main.0.weight f4 [10, 2, 5, 5]
00000000: 9174 ce3c d002 94be d240 fa3d 5771 9c3e
00000010: 4fd6 4dbd 0df2 05bc 34fb efbc b6b7 fb3d
00000020: 38d4 143e f103 f1bd 9f86 383c 308a a53e
00000030: 3307 c7be 2614 e33c 7e0e d93d 1a7f 953d
00000040: f49d 9dbe f5da 5d3e 39b5 ab3d 4af3 12be
00000050: 8a8a 163e e6f2 913e 502f 8a3d 4dfd 833e
00000060: 0f2b 2b3e 4e85 413e 7abb 2cbe 4483 9f3b
00000070: 5d8b 883e 037c ffbd ed88 adbe bbfe 5d3e
00000080: 5dea 21be cfe4 0ebd 2118 ab3d 43b0 923e
00000090: 7258 e03c 9215 07bf ec5f 203e ed7b aabd
000000a0: d4da 04bc 47cc 533e 3f5e 05be 6a8c 7f3e
000000b0: 8eaa 003e 1e94 55be a4aa e2bd 4876 c13e
000000c0: f5aa 843d 7043 d53c 0b69 febd 777c 33be
000000d0: 0837 053e eb48 08be bf09 833e 4961 2b3e
000000e0: 835d f63d 0a47 fa3d 9b97 e2bd 8b7a 923b
000000f0: 21c4 2cbe 44ab 6b3d 2f91 2c3e 7a8a 313e
00000100: 6c40 eebd 43f4 3f3e ff1d 40be 2ddc d03d
00000110: c6ab 473d 011f 8d3d 2ae4 82bd 11a9 5a3e
00000120: 307c 1c3e 9389 9fbd 29d3 4abe 97bb 3c3e
00000130: 5517 a43e 9b02 2dbe d514 d6be 11ca 37be
00000140: ab4b 61be 5752 ce3e 77e9 303e 307b 9fbe
00000150: d12e 443e b4ee b1bd f307 3a3d 3acd 4d3e
00000160: 798c 463c 70a0 c2bc 02d7 8cbe c480 a83d
00000170: cccb 2ebb ca03 15bf 0a50 8c3e 8331 7e3d
00000180: f48c 8bbe 1f8a 943e 4ecb 32bd e792 24bd
00000190: 1fd2 213e ae5c 40be 79e9 dcbd e836 f2bd
000001a0: 4480 10be fca7 b9be 2865 a4bd c0bf 6ebe
000001b0: e748 d4bd c405 2bbe 582c 02be 94b5 903e
000001c0: ff3d 963e 6caa 51bd 3475 bbbe 1dc4 1fbd
000001d0: 5af5 16be c8c8 76be e6ef 2cbe ff0f 54be
000001e0: 6080 6bbe 90f2 9a3e 85ac e63b c824 fe3e
000001f0: 5093 f13d 47d2 703e 004c 053d b909 983e
00000200: 73da dfbd c6fc d93b e2d5 383d 557d 813c
00000210: b49d 5d3e 166c 99be e53e a33e 06ab 16bd
00000220: bc26 80ba c220 50bd 61e0 583d a3cf b63d
00000230: c463 283e 37e6 b4be a979 ee3d 2dc8 d23d
00000240: c842 e1bc 2c49 e33d 129c 92bc 2abc 7bbe
00000250: e89b 323e 9811 f63d 3de4 283d 5967 973e
00000260: c9e2 aa3d 81bc be3d 4c02 4fbe 89c3 e33e
00000270: 8b56 d9bd eb68 813e a2c8 c53c 24f0 a03e
00000280: a328 3c3e 1d4b 953d 8bb6 36bd c49c 623e
00000290: 733d 0d3e 4697 54bd 5e97 69be 3b53 053e
000002a0: f4df 9bbe 7ff1 2a3e 7dc2 18bd aa35 c2bd
000002b0: f705 483e 067e de3e e696 23ba 8385 513d
000002c0: f8a4 5ebc 5d3b 593e a978 973c 85ee 91bd
000002d0: 8c4c 083e 9d09 b53d dc04 713b 6e42 d53c
000002e0: 36fb ab3e c406 913d b158 2abe 26cc 13bd
000002f0: 8690 78be 6383 0abe c3fe e53d 3276 3f3e
00000300: 5dec 40be a36c 50be 3011 613e 9833 30bc
00000310: 061b e13d 6e2e 07bf 4684 8abe de36 423c
00000320: 9de4 8f3d 647b 663e 99d4 a2bd 5187 8a3e
00000330: 62c5 b83e f0b1 123d 223e 8c3e 54f6 1abd
00000340: 8751 debd aa83 15bd 9827 b2be 979a 42be
00000350: 8055 bc3d c93d 2a3d 4c03 37be 771e 403e
00000360: f9a1 3abe 6210 503e 6886 f4bc 906a b93e
00000370: 79e3 353d d32f c2bd ac7f af3d aa7b 463e
00000380: be8e a8bd c138 4abe 64bb 7c3e acf7 47bd
00000390: dbbb b73e 7068 0d3e 7d34 e3bc af8c 0cbe
000003a0: 6977 f0be 90ec 42be 52cf 92bb 9887 00bd
000003b0: d7d9 49be 4797 4fbe 177a 8abd eee0 073c
000003c0: cb35 03be 2b4f 6ebe cebc 333e 0034 c63d
000003d0: b54a b53d 3b97 953e e21d 8dbe 1c29 3dbe
000003e0: 663e ab3e a57b 533e 8d0e 883e e7e4 983c
000003f0: 06e8 bdbd da1d 243e 78cb 4b3e f523 90be
0.025202068 -0.28908396 0.12219395 0.3055522 -0.05025321 -0.008175385 -0.029294588 0.122908995
0.1453408 -0.1176833 0.011262565 0.3233199 -0.3887268 0.027719568 0.10598467 0.07299633
-0.3078457 0.21665557 0.08384175 -0.1435062 0.14701286 0.2850563 0.067473054 0.2577919
0.16715644 0.18898508 -0.16868392 0.004867943 0.26668826 -0.12474825 -0.3389353 0.21679203
-0.15812059 -0.034886178 0.083542116 0.28650102 0.027385924 -0.5276729 0.15661591 -0.08324418
-0.008108813 0.20683394 -0.13024233 0.24955907 0.12565061 -0.20857283 -0.11067703 0.37785554
0.0647792 0.026033133 -0.12422379 -0.17527948 0.13009274 -0.13309066 0.25593373 0.1673633
0.12029555 0.12220581 -0.11064073 0.0044701747 -0.16871692 0.05753638 0.16852258 0.17337981
-0.11633381 0.18745522 -0.18761443 0.10198245 0.0487478 0.06890679 -0.06391175 0.21353556
0.15281749 -0.07789912 -0.19807114 0.18430935 0.3204905 -0.16895525 -0.4181277 -0.17948176
-0.22001521 0.40297195 0.1727656 -0.31148672 0.19158484 -0.08688107 0.045417737 0.20097819
0.012118452 -0.023758143 -0.27507788 0.08227685 -0.0026671765 -0.58208907 0.27404815 0.062058937
-0.27255976 0.29011628 -0.043650918 -0.04017916 0.15802811 -0.18785354 -0.10786719 -0.11826879
-0.1411143 -0.36260974 -0.080271065 -0.23315334 -0.103654675 -0.16701418 -0.12712228 0.28263533
0.29344174 -0.051187918 -0.36612856 -0.039005388 -0.14742032 -0.2410003 -0.16888389 -0.20709227
-0.2299819 0.30263186 0.007039609 0.49637437 0.11795676 0.23517714 0.032543182 0.29694918
-0.10930338 0.0066524474 0.04512585 0.015806833 0.2164219 -0.29965276 0.31883922 -0.036784194
-0.0009777169 -0.05081249 0.05294836 0.08926322 0.16444308 -0.3533189 0.116442986 0.10292087
-0.027497664 0.11097941 -0.017896686 -0.24583498 0.17442286 0.120150745 0.04123329 0.29571036
0.08344037 0.09313298 -0.2021572 0.4448512 -0.1061221 0.2527536 0.02414352 0.31433213
0.18374877 0.07289717 -0.04460768 0.22130114 0.13792972 -0.051902078 -0.22811648 0.13020031
-0.304443 0.16693686 -0.037294853 -0.09482892 0.19533525 0.43455523 -0.0006240442 0.051152717
-0.013589136 0.21214052 0.018490152 -0.07125572 0.1331045 0.08839724 0.0036776578 0.026032653
0.33590096 0.070813686 -0.16635396 -0.036083363 -0.24273881 -0.13526683 0.112302326 0.18697432
-0.18840165 -0.20353942 0.21979213 -0.010754488 0.109914824 -0.5280522 -0.27054042 0.011853902
0.070260264 0.22508007 -0.07950706 0.27056363 0.3608809 0.035814226 0.27391154 -0.037832573
-0.10855394 -0.036502518 -0.34795833 -0.19004284 0.09195995 0.04156283 -0.17872351 0.18761621
-0.1822585 0.2031875 -0.029849246 0.36214113 0.044406388 -0.09481778 0.08569273 0.19383112
-0.08230351 -0.19748212 0.24680859 -0.048820183 0.3588551 0.13809371 -0.02773499 -0.13725542
-0.46966103 -0.19035554 -0.004480281 -0.031379312 -0.19712006 -0.20272551 -0.06761568 0.0082933735
-0.12813489 -0.23272388 0.17552492 0.09677887 0.0885214 0.29216942 -0.2756186 -0.18472713
0.33446044 0.20652635 0.265736 0.018663837 -0.092727706 0.16027012 0.19901836 -0.28152433

base.main.0.bias f4 [10]
00000000: 6017 cb39 1abe 01bd c864 0cbd d080 c5bc
00000010: ba68 95bc e7c4 35bc 0e06 42bd 59af abbc
00000020: a02b d5bc cb39 acbc
0.00038736593 -0.031675436 -0.0342758 -0.024109274 -0.018238414 -0.011094308 -0.047369055 -0.020957636
-0.026021779 -0.021023652

base.main.2.weight f4 [20, 10, 5, 5]
00000000: 0c0b 1b3d cf44 ee3d 3673 b8bc 9825 f5bc
00000010: 657a 28be 6be6 7c3d 2569 8e3d b306 9ebd
00000020: b761 753d af69 e93d d738 163e 362c ee3c
00000030: 3ba5 cdbb fd32 2bbe cfb5 cbbc 4ce6 c8bc
00000040: 930c 9ebd 144d cabd ac3f 00bd dbc2 21bd
00000050: 131f 3ebe f0ed 17be 9892 13bd 4cf0 363c
00000060: 410c 073e 08d5 18be dd33 e63d 6b03 79bd
00000070: 3b07 aa3c ba7d 4e3d d930 42bd e282 9dbd
00000080: 660f 053e b5a1 fdbd b918 d5bd 33b6 42bd
00000090: 90ea f13d 9ca6 b7bd 985d f2bc c85a 19be
000000a0: 5f6f b23c fbab 71bd df39 ea3c 1db9 aabd
000000b0: 9c4c bdbd 934a 09bc 5dd0 333e 24b6 9f3d
000000c0: fa1e 2ebd 253e e73d afea f8bd 6f2a 413d
000000d0: 32b6 43bd eb2c 9bbd 51ca 0fbe 0925 a23d
000000e0: 81ce a0bd 5477 bb3d d9b5 d7bd e481 96bd
000000f0: 48f8 b4bc 2a1f d03c 20a4 5bbe d876 e03c
00000100: dba8 61bd 8278 883d 51b3 acbb 1503 a3bd
00000110: 9e94 0c3d 2dab 203c 28fa 6c3c 5743 113e
00000120: 95ff a6bd f7f8 9b3c 2cdf 733e 6db8 683d
00000130: 5765 42be 9ca5 6dbd 95e4 8b3d 70c2 1d3d
00000140: 4398 043e 6558 eabc a4cf ac3d 7e9b a4bb
00000150: 2499 d03d 4190 5abd e70f 2b3e 1f1c 573d
00000160: c167 1d3e dc44 b33d e1cf 01be 9b55 a63c
00000170: 00df 83b8 e6a3 d73d 771e a1bd bb66 8f3c
00000180: 89d4 9bbc 8b5a 693d 2222 8f3d c4df 073e
00000190: 4c98 423d 2a83 0f3e 5606 0abd 0ac0 083e
000001a0: 4509 07be 90e1 3cbe ba33 0fbe 7b63 2dbe
000001b0: 2203 8abd b3d5 9c3d 463f 6abc 7208 473d
000001c0: ac7e c8bd 6d44 873d 2603 6bbd 10aa b23c
000001d0: 101d a03d b508 9ebd 5605 563c 736f 66be
000001e0: cdb6 ffbd e25c 28bd a1b4 87bd e2d3 cebd
000001f0: 4e72 493d 878e 92bc 8e40 9abc b87f 2e3b
00000200: 28e5 1d3c 8cc3 fc3d 4cd4 993c 189e 8abd
00000210: c99b 61bc 5eb2 01be 70ea 253d ef29 24be
00000220: ee8e 843d cd39 193d acc5 d13c f331 55bc
00000230: f751 b3bd 05b1 5b3d e1b7 f3ba aa18 8eb9
00000240: 8a4e 67be 1743 233d a566 19bd 7728 fc3c
00000250: 651f 0d3d 9d47 f0bb 7184 b5bd 804c 563d
00000260: 55db 5fbd befa 0ebd 6043 d6bd f36a fdbd
00000270: b878 10bd dfb2 413d 8e2f 02be 13f4 29bd
00000280: c49c 17bd 0b81 bfbd d337 5c3d 6ba9 c7bb
00000290: c3fd c63b ddc8 a73d 9888 80bd 9630 943d
000002a0: d7cb 543b 3d54 773d 06e4 4f3d 3fbc 90bd
000002b0: cc30 953c 8320 e7bd 96ca 1bbc 1d19 d93d
000002c0: aab1 e7b9 1a0e 0d3e 4ddb 453c 8cdb 9abd
000002d0: 4edc 98bd 7f33 3ebd 4661 c23d c75b 303d
000002e0: b2bd 3dbe 9a36 a13d c088 3cbb 3555 4dbc
000002f0: 0021 03ba bf74 ecbc 242f 273d 0286 6dbc
00000300: 49f1 0f3d e7dd 1f3e 006b 2fbd 6e6a d2bd
00000310: c7b4 f739 1546 7ebd 09f4 133d f34c 453d
00000320: 0d32 c53c dafb b1bd d7d3 643e 49b8 b9bd
00000330: 55f3 14be dfe9 8abc f018 f33d e796 3b3e
00000340: 93a1 523c b307 1d3d cca6 e8bc 1981 4a3c
00000350: 09e8 cb3c 0891 00bd b12d 9bbd a411 e73d
00000360: 6c86 e2bd 90d6 05bd d406 62bd b618 75bc
00000370: 8fa8 893e 501b 16bd 08b0 05bd 26e9 1f3d
00000380: 0ccf 423a 3c4e b03c 40b4 1cbe c781 01be
00000390: 2847 883d 6321 063d 3458 28be ce55 f4bd
000003a0: a990 5d3e b621 0ebe 08b8 3abc 87b4 a3bd
000003b0: 28d3 efbd 9eb0 39bd 9243 ea3c 2fdc 9cbc
000003c0: 28d2 aa3d d143 1fbd 7881 743b 5288 0f3e
000003d0: 4730 3c3d ed3a 9dbd 95d2 a4bd 320b 0f3e
000003e0: f7cb 97bd 0387 023e b312 20be 9ab7 13bd
000003f0: 9b5a afbd 122e 21bd 2228 f83c 9cac 8abc
0.037852332 0.11634218 -0.022515874 -0.029925153 -0.1645294 0.06174318 0.069536485 -0.077161215
0.05990764 0.11397111 0.1467012 0.029073816 -0.0062758005 -0.16718669 -0.024866967 -0.024523877
-0.07717242 -0.09877983 -0.031310722 -0.03949247 -0.18566541 -0.1483686 -0.036028475 0.01116569
0.13188268 -0.14925015 0.11240361 -0.060794275 0.0207554 0.05041287 -0.047409866 -0.076909795
0.12994155 -0.12384359 -0.10405106 -0.04753704 0.11812317 -0.08967325 -0.029585645 -0.14976037
0.021781622 -0.059001904 0.028592048 -0.08336089 -0.09243128 -0.008379596 0.17559953 0.077984124
-0.04251001 0.1129115 -0.12154137 0.04715961 -0.047781177 -0.07576927 -0.14042021 0.0791722
-0.078518875 0.091536194 -0.105327316 -0.073489934 -0.022091046 0.025405485 -0.21449327 0.02740042
-0.055092674 0.0666361 -0.0052703996 -0.07959572 0.03432142 0.0098064365 0.014463939 0.14185844
-0.08154217 0.019039614 0.23815602 0.056816507 -0.1898397 -0.058019266 0.06830708 0.03851551
0.12948708 -0.028606603 0.08438042 -0.005023419 0.10185459 -0.053360227 0.16705285 0.052517053
0.1537161 0.08753368 -0.12676956 0.020304492 -6.288104e-05 0.10529308 -0.07867139 0.01750504
-0.019022243 0.056971114 0.06988932 0.13268954 0.047508523 0.14014879 -0.03369745 0.13354507
-0.1318713 -0.1844542 -0.13984576 -0.1693248 -0.06738879 0.076579474 -0.014297312 0.04859204
-0.09789786 0.06604848 -0.05737605 0.021809608 0.07818043 -0.077165045 0.013062796 -0.22503452
-0.12486038 -0.041104205 -0.06626249 -0.10099007 0.049181275 -0.017890228 -0.01882961 0.002662642
0.009637155 0.12341985 0.018777989 -0.06768435 -0.013770052 -0.12665698 0.04050678 -0.16031621
0.06472574 0.03740864 0.025606953 -0.013012397 -0.08755868 0.053635616 -0.0018594229 -0.00027102727
-0.22588554 0.039858904 -0.037451405 0.030781014 0.03445377 -0.0073327557 -0.08863152 0.05231905
-0.05465253 -0.034907095 -0.104620695 -0.123739146 -0.035271376 0.047289725 -0.12713453 -0.041492533
-0.037014738 -0.09350785 0.053764176 -0.0060931942 0.006072731 0.081926085 -0.06276053 0.072358295
0.003247013 0.06038307 0.05075457 -0.07067155 0.018211745 -0.11285498 -0.0095087495 0.10600493
-0.00044192123 0.1377491 0.012076211 -0.075614065 -0.07463895 -0.04643583 0.0949121 0.043056276
-0.18529394 0.078717425 -0.0028768033 -0.012532522 -0.0005002171 -0.028864263 0.04081644 -0.014497282
0.035142217 0.15611993 -0.042826653 -0.10274206 0.000472462 -0.062078554 0.036121402 0.048169088
0.024071718 -0.08690615 0.22346435 -0.09068353 -0.14545949 -0.016957222 0.11869991 0.18319283
0.012855905 0.03833742 -0.028399847 0.012359881 0.024890916 -0.031388313 -0.07577074 0.112826616
-0.11060795 -0.032675326 -0.055182293 -0.014959505 0.26886413 -0.03664714 -0.03263858 0.039040707
0.0007431365 0.02152168 -0.15303135 -0.12647162 0.06654197 0.032746684 -0.16439897 -0.119304284
0.21637215 -0.13880047 -0.0113964155 -0.07993417 -0.11710197 -0.04533445 0.028596673 -0.01914796
0.083408654 -0.038883034 0.0037308615 0.14016846 0.04594448 -0.07677255 -0.08047978 0.13969114
-0.0741195 0.12746815 -0.15632133 -0.036063768 -0.085622035 -0.039350577 0.030292574 -0.01692801

base.main.2.bias f4 [20]
00000000: aad8 81bb f6ed 81bc cba9 54ba 06e2 a3bb
00000010: e68d 4dbb 1bd5 1a3c 5c48 7fb9 b1d1 c7bc
00000020: bdf5 0a3c d1a7 cebc 3015 0bbc 356a 91bc
00000030: 52ba 3c3c 5999 8e3c f3f2 5ebc 8250 b0ba
00000040: 17b4 3bbc eea2 f5bb 32ae a6ba 2505 cebb
-0.003962596 -0.015860539 -0.00081124593 -0.0050013093 -0.0031365096 0.009450222 -0.00024345651 -0.02439198
0.00848144 -0.025226505 -0.008488938 -0.017750839 0.011519032 0.017407106 -0.013607728 -0.0013451728
-0.011456511 -0.0074962294 -0.0012716709 -0.0062872344

base.main.4.weight f4 [10, 20, 5, 5]
00000000: 2830 cdbb e29e 273d 2285 ca3d 205b 04be
00000010: 32f8 e13c 7ce1 f83d acb5 e5bd 0d9f adbd
00000020: c4a2 733c 86d2 40be b418 e5bb 2e4a 16bc
00000030: 96a0 fa3d c0b0 2ebc b664 b8bc 618b 0f3d
00000040: 5905 41bd 1c2f 013c a041 82bc 7677 f13d
00000050: 34ba d53a d646 b13c 145e c7bd 2cb8 e43c
00000060: beb2 673d dcf2 49bd c492 ef3c 50bc 043d
00000070: 37a7 cabd 76d3 803c 4c44 bdbd 0e1e 05bd
00000080: d5f7 e23c 487e 9d3c ae12 a0bd 2b56 a83d
00000090: babb 923c 8997 b93d 034c 023e 280e 01bd
000000a0: b520 6fbd 18d8 823d 6733 8f3d 3571 ae3d
000000b0: d84e 903d d2b9 44bb 3ef8 7f3c 8660 53bd
000000c0: 6ea3 813c 6da7 5f3d 7ea3 02bd 2b47 9b3d
000000d0: 2a3e efbd a105 4d3d 5ba6 33bd df9e 9c3c
000000e0: 68d4 a03d 261b a53d ced7 d9bd d0ea 61bd
000000f0: 5e3c c6bd 363e 043d d8d2 5c3d 0212 b2bd
00000100: b025 5bbc 0390 04bd f7c8 fc3c 3c2e b0bc
00000110: ceb3 803c 28b1 cbbc 3af7 b43d f8b7 003d
00000120: 9b08 24bc 924c c5bd 2c08 10bd 6239 253d
00000130: c9d5 cbbd 2394 d5bd 044d 8a3d 5d69 153e
00000140: 1f3f 63bd 3fb5 8c3d 1711 953c 1a86 b0bd
00000150: 0a24 20bd 45f3 d13d 8382 ba3c 2fb9 7e3c
00000160: fa71 b83c c3b4 5a3c 0040 52bc ca4f 073b
00000170: 72db d73b 08c8 b8bd 2145 013e 5ac6 ccbd
00000180: d811 2cbe 7c1e a2bd 5fad 13bd d1d4 fdbc
00000190: b830 d63b 3a06 e93a 2835 cbba b075 833c
000001a0: 8dba 90bd d1be 413d 72ca 433b e807 9f3d
000001b0: 78f0 183e 9285 c2bb d8ae 39bc a2be 563c
000001c0: cce0 26bc 91af 323d 875a a2bd 5e0d 6fbd
000001d0: 4074 bb39 54e3 803b f8c3 083d 5e16 e43b
000001e0: cc91 4a3b ad5e 13bd ca6a 3cbd 085b 5a3c
000001f0: 28d9 383d c0f0 0c3a cdb3 babd 868c 08bd
00000200: 1f4b d03c ec9d 55bd 0893 9a3c 832c fb3c
00000210: e930 093d 2ddd 41bd 845a a9bc 8803 2fbd
00000220: 624d 0cbe bd6b 58bc 281a a23d b59f c7bd
00000230: db68 c6bd 7556 0f3e b3b7 af3d 8661 063d
00000240: e9c6 343d 0708 5b3d 5841 44bd 91b8 83bc
00000250: 9620 c1bc 3ad1 04bc 2ef0 b8bd 1139 a73c
00000260: 0e61 40bb a4db 4ebd aaf5 a6bd 1c22 653d
00000270: 6800 77bd 949e 0cbe 24c4 76bd 06ed 1dbd
00000280: 1ccb eebc a27a b4bd 623d 1e3d db83 16bc
00000290: 5989 e7bb aeaf 99bd 2534 1cbc d0cc 293d
000002a0: 1cf4 84bd d2d2 523d 3872 293d 9578 57bd
000002b0: 3b8c 02bc f002 29bd 911a 893c 6366 ea3d
000002c0: 22f0 d63d b035 3cbc 99fe d0bd 5450 8b3d
000002d0: 6db8 63bd 1e56 6a3c 9eb5 c63c 5ff4 cfbc
000002e0: afd3 5c3d 9f18 563d e995 56bd 96b5 e0bb
000002f0: 179c 253d 1e8c 2b3c 4dc7 85bd 86f4 edbc
00000300: 70da 783c b8db 40bd ee8b a03c 4a63 74bd
00000310: e68c aabc 9cb1 5cbd f038 a3bd 40fd b03c
00000320: 5af0 98bb 9424 c93b 4e86 073d 94a4 483c
00000330: b779 4fbc 18ca ebba 0a3e 623c 3d0a ddbd
00000340: 2e76 d33d 59b7 873d 38ee c0bd a305 eebc
00000350: 4eb6 263c c478 98ba 0a0b afbd ca32 a0bc
00000360: 5b7e 213d 9700 f1bc 392b 0dbe a604 17bb
00000370: 988c 87bd 3848 893d 073b 2dbd dcb1 a9bd
00000380: a334 a1bc 7f41 f8bc 5cc8 82bd f4f4 8e3d
00000390: 6033 743d bd88 713d a056 fc3c 54a9 363b
000003a0: aab4 cc3d a9c5 f03c 9517 fcbc 1f81 cbbd
000003b0: eacb 6cbd a587 973d d378 e83c 8334 5bbd
000003c0: c7e2 5bbd d0a4 c3bc 937f ed3c 559c dabd
000003d0: 609d eebb 3232 81bd 3e3b 62bd 6e53 91bd
000003e0: 0b6f 93bd 8b80 5abd 7268 e03d 2d16 f53c
000003f0: e318 cf3d e297 1dbe f0b6 90bd 800d 03bd
-0.006261844 0.040923007 0.09888674 -0.12925386 0.027584169 0.12152383 -0.11216292 -0.08477602
0.014870349 -0.18830308 -0.00699147 -0.009172959 0.122376606 -0.010662258 -0.02250896 0.03504503
-0.04712424 0.007884767 -0.015900433 0.117903635 0.0016306103 0.021640223 -0.09734741 0.027919851
0.056566946 -0.049303874 0.029244788 0.03240615 -0.09895175 0.015725832 -0.09241542 -0.032499366
0.027706066 0.019225255 -0.07816063 0.0821956 0.01791178 0.09062106 0.12724309 -0.03150764
-0.0583808 0.06388873 0.06992226 0.08517686 0.07046288 -0.0030017984 0.01562315 -0.051605724
0.015825 0.05460303 -0.0318942 0.075819336 -0.11681779 0.050054196 -0.04385982 0.019118724
0.07853013 0.08061819 -0.106368646 -0.055155575 -0.09679483 0.03228589 0.053912014 -0.08694841
-0.013375685 -0.032363903 0.030857546 -0.021506421 0.015710738 -0.024864748 0.08836217 0.031425446
-0.010011817 -0.09633745 -0.035164043 0.040337928 -0.09952886 -0.104286455 0.06752971 0.14590974
-0.05548012 0.068705074 0.018196626 -0.08619328 -0.03909687 0.10251478 0.022767311 0.015547081
0.022515286 0.013348761 -0.012832642 0.0020646923 0.006587439 -0.09022528 0.12624027 -0.0999877
-0.16803682 -0.07915971 -0.03605401 -0.030985268 0.0065365694 0.0017778345 -0.0015503513 0.016047329
-0.07066832 0.047301117 0.0029875305 0.0776518 0.14935482 -0.005936333 -0.01133319 0.013106974
-0.010185432 0.043624464 -0.07927423 -0.058362357 0.00035754032 0.0039333496 0.033390015 0.006960674
0.0030909656 -0.03597896 -0.04600028 0.013327368 0.04512897 0.0005376451 -0.091163255 -0.03333714
0.025426446 -0.05215256 0.018868938 0.030660873 0.03349391 -0.04733007 -0.020673044 -0.042727977
-0.13701394 -0.013209281 0.07915145 -0.097472586 -0.09687968 0.13997824 0.0857996 0.03280785
0.044135008 0.053474452 -0.04791388 -0.016079219 -0.023575108 -0.008106524 -0.09030186 0.020412954
-0.0029354724 -0.050502434 -0.081523255 0.055940732 -0.06030312 -0.13732368 -0.060245648 -0.03855612
-0.029149584 -0.08812453 0.038632758 -0.00918671 -0.0070659337 -0.07504211 -0.009533917 0.04145509
-0.06491873 0.051470585 0.041368693 -0.05260523 -0.007968004 -0.041262567 0.0167363 0.1144531
0.104950204 -0.0114874095 -0.10204811 0.06802431 -0.055595804 0.0143027585 0.024256524 -0.02538508
0.053912815 0.052269574 -0.05238906 -0.006857584 0.040432062 0.010470418 -0.06532154 -0.029047262
0.015188798 -0.04708454 0.019597974 -0.059665002 -0.020819139 -0.05388032 -0.07969844 0.021605134
-0.004667324 0.0061383937 0.033087067 0.01224627 -0.012663296 -0.0017989306 0.013808737 -0.107929684
0.10325275 0.06626768 -0.094204366 -0.029055422 0.010175301 -0.0011632671 -0.085470274 -0.019555468
0.039427143 -0.029419227 -0.1378602 -0.0023043542 -0.06618613 0.06703228 -0.04229262 -0.08285877
-0.01967842 -0.030304668 -0.06385872 0.06980315 0.059619308 0.058968294 0.030803025 0.0027871924
0.099953964 0.029391127 -0.030772964 -0.09936737 -0.057811655 0.07398919 0.028377926 -0.053516876
-0.05368307 -0.0238823 0.028991496 -0.10674349 -0.007281944 -0.06308402 -0.05523228 -0.07095991
-0.07198914 -0.053345244 0.10957421 0.0299178 0.10112169 -0.1538997 -0.070661426 -0.031995296

base.main.4.bias f4 [10]
00000000: 809d 88bc f575 88bc dd0a 88bc c024 81bb
00000010: 47f4 24bc 7a31 87bc e065 7d3a 02d1 0fbc
00000020: 8439 8abc ce39 a8bc
-0.016676664 -0.016657809 -0.016606743 -0.0039411485 -0.010068006 -0.016503084 0.00096663646 -0.008777859
-0.016873129 -0.020535376

base.main.7.weight f4 [512, 360]
00000000: b5fb 9c3c f393 6d3c 0945 a3bb 9f18 49bd
00000010: 15c5 27be 2336 623d d859 303d 11d1 3d3c
00000020: b4b8 db3d 53fb fc3c 2e43 ed3b 98ab b53d
00000030: ddfd 54bb a3f0 3ebc ce60 ae3d e6d6 45bb
00000040: 4bc9 1b3b 335e 253d c188 86bd d3a2 a6bd
00000050: 1b80 a8bd f653 8e3d a6b0 aa3c 3034 883d
00000060: 757b 933d af67 f3bc bd2e aabc 3e71 84bd
00000070: 7081 333d ad16 17be 12be bfbd b446 15bc
00000080: 1b32 473d dd70 7c3c af76 00bd 2567 303e
00000090: 43ff dbbc a481 db39 8fc8 c93c cfd5 cabc
000000a0: 64d7 c7bb a278 7abc d1b2 923d b4c6 46bb
000000b0: 63ef 06be e68e 003e 7e51 6a3d b464 c1bc
000000c0: e509 80bc 3959 653d df8f f53d 4a2c fa3b
000000d0: 264e 61bd 952e d03c d26a 98bc aec5 fc3b
000000e0: a054 98bd 5d90 f83d 7a32 1d3d 44b9 713c
000000f0: 29f1 593d 66df b83d c330 78bd bc2d 03bc
00000100: 0e8b 6a3d ceb0 133c 6ea6 82bd bcae b6bc
00000110: e320 f3bd bd5f 84bc 220e bbba 28e0 473d
00000120: 9fde e13c bd71 853c 5b39 9b3b 1144 08be
00000130: a0f8 58bd ea8c 04bd 5a57 64bd 813d 4a3d
00000140: cc50 5f3d 7c3d 6ebd da3a ecba df33 dfbc
00000150: f35f 36bd f42b eebc 52f6 5abc d818 0d3c
00000160: 1586 a6bd 53c1 e73c d569 edbc c45d 143e
00000170: eb52 ac3c c260 323d e8f6 a23d 8a8f 90bc
00000180: 0d54 9dbd 0054 7cbd f782 ab3d 98ea 3c3d
00000190: 0d8f aebd 9287 a7bd 4c92 fabb 28e5 84bd
000001a0: 2af3 d5bb 3247 2b3d ccca 2a3c d07a c43d
000001b0: 8522 0c3d cdf2 96bd 4b16 5d3c 12e4 953b
000001c0: 704d f23c e394 83bc d0fa 3f3d cb2e 913d
000001d0: 2f1d 723c cc41 e53a 3521 7bbd e8c7 3f3c
000001e0: 5666 febd 1289 b63c 63cc d9bc 47fd bebd
000001f0: a2c9 a4bd 01aa f83c e85f bc3d ae8e a33c
00000200: 57ae 4a3d 0263 493d 78d7 6fbd 18c9 703c
00000210: 9b88 1dbe e19c e73c 2a89 ad3c 4cca 6e3c
00000220: f809 153c f8ad 4a3d 6f48 d0bd cd7f 593c
00000230: 0749 f43c f88c 1abd dd9e a2bd 7946 8dbd
00000240: 4a13 a6bc 1128 c1bc ddab 45bd fd84 7cbd
00000250: 9600 85bc 90c1 b43d 2e8e 1f3e b189 e03c
00000260: 1275 1b3d a2d9 eebd fb74 86bd 48c2 48bd
00000270: cf84 08bd fba4 973c 4c6e b7bd 8279 4cbd
00000280: 2481 48be f447 9bbd b831 7bba 864c f23c
00000290: 4f41 28bc e0d4 bbbb b74d a43d 9e20 3bbd
000002a0: 75de 3c3d d758 193c f3ee e5bd ea43 b2bb
000002b0: f10a 7d3d 808d 673c f9f1 533c 6ae0 97bd
000002c0: b14b dcbb fa89 373c 348f 493e 9b77 c0bb
000002d0: 8f20 5dbd 3a69 e63c 662b 593c 8fa8 40bd
000002e0: 7a23 703d 4161 0d3d d8d7 03bd 7ec4 cd3d
000002f0: 55a3 913d da93 63bd fba0 a3bc 78a2 d73d
00000300: e2ea 81bd 096a 3bbd e614 8ebd ee37 2ebd
00000310: 9ec1 d73c 8d0c cbbd 2981 81bd d856 cd3d
00000320: f2ef 96bb 4792 96bd 2cd4 bd3c 1667 c33b
00000330: 6961 76bb f35b 92bd 8e9f 8a3c 8c06 513b
00000340: 4b3c a53c 3579 cdbc 4b36 ef3d 4d0c 0e3d
00000350: c405 fcbd 142b b73d 44b9 afbd ab59 113c
00000360: cebf 1dbd 1a78 4ebd 2d31 b1bb 35ad 86bc
00000370: 9447 d73d 2372 a1bd 9c08 f33c e4a9 8fbc
00000380: b7b2 91bc f20a 273d 4461 5cbd 4715 073d
00000390: 19a1 b73d 7678 e9bc 1ffb 09be 0bfc eabb
000003a0: 5617 fdbc 976d 9ebd aca9 ab3d a290 82bb
000003b0: 1a5e b6bd 1be5 c43d 60e6 af3d 5d3c 95bd
000003c0: af34 2d3d 4d08 a6bd 0ee0 64bd 87ab 04bd
000003d0: ca94 643d d1fe 59bd 57b9 efbc 5c87 41bd
000003e0: 9ecd 8ebc 80dd ccbd c82b 5fbd 3dfd 1cba
000003f0: 351b 953d fab0 823d 211d 29be 35c1 9c3d
0.019162992 0.014500606 -0.004982595 -0.049095746 -0.16383775 0.05522741 0.04305443 0.01158549
0.10728589 0.03088156 0.0072406745 0.088706195 -0.0032499947 -0.011654052 0.08514558 -0.0030187904
0.0023771103 0.04037304 -0.065690525 -0.08136525 -0.08227559 0.06949608 0.020836186 0.06650579
0.07201282 -0.029712526 -0.02077424 -0.06466912 0.043824613 -0.14754744 -0.09362425 -0.009111095
0.04863177 0.015407768 -0.031363185 0.17226847 -0.026855117 0.00041867525 0.024631767 -0.024760155
-0.0060986746 -0.01528755 0.07163013 -0.0030330839 -0.13177256 0.12554511 0.057206623 -0.02360759
-0.015629718 0.055993292 0.11990332 0.007634674 -0.05500617 0.025412837 -0.018605623 0.007713995
-0.07438016 0.1213691 0.038378216 0.014753643 0.053208504 0.09026985 -0.060593378 -0.008006509
0.05726152 0.0090143215 -0.063794 -0.022300117 -0.11871507 -0.016158933 -0.001427118 0.048797756
0.027571974 0.016289586 0.004737062 -0.13307215 -0.052971482 -0.03236095 -0.055747367 0.04937506
0.054520413 -0.058164105 -0.001802291 -0.027246414 -0.044525098 -0.029073693 -0.013364391 0.00861188
-0.08131043 0.028290426 -0.028981129 0.14488894 0.021035632 0.043549307 0.0795725 -0.01764657
-0.07682047 -0.061603546 0.08374589 0.046122164 -0.085233785 -0.08180155 -0.0076468345 -0.064890206
-0.0065292316 0.041815944 0.010424327 0.09593737 0.034212608 -0.07370529 0.013494085 0.0045743072
0.02957794 -0.016062206 0.046870053 0.07089003 0.014777466 0.0017490922 -0.061310966 0.011705376
-0.12421863 0.022282157 -0.026586717 -0.093256526 -0.08046271 0.030354502 0.0919798 0.019965496
0.04948267 0.049166687 -0.058555096 0.014696382 -0.15384142 0.028273048 0.021183569 0.0145745985
0.009096615 0.049482316 -0.101700656 0.013275099 0.029819978 -0.037732095 -0.07940457 -0.06898207
-0.02027287 -0.023578675 -0.048259605 -0.061650265 -0.016235631 0.088259816 0.15581581 0.027409406
0.037953444 -0.11662604 -0.06565281 -0.049013406 -0.03332978 0.018511286 -0.08956584 -0.049920566
-0.19580513 -0.07582083 -0.0009582299 0.029577505 -0.010269477 -0.005732164 0.080226354 -0.045685403
0.04611059 0.00935956 -0.112272166 -0.005440225 0.061778013 0.014132857 0.012936109 -0.074158505
-0.0067228903 0.01120233 0.19683534 -0.005873633 -0.05398613 0.028126348 0.013254976 -0.04703575
0.058627583 0.034516577 -0.032188267 0.100472435 0.07111231 -0.055560924 -0.019974222 0.10529035
-0.063436285 -0.04575542 -0.0693758 -0.042533807 0.026337441 -0.09914503 -0.063234635 0.1002633
-0.0046062404 -0.07352119 0.02317246 0.0059632165 -0.0037594682 -0.07146444 0.016921785 0.0031894771
0.020170351 -0.02508221 0.116802774 0.0346797 -0.12305787 0.089437634 -0.085802585 0.008871476
-0.038512997 -0.050407507 -0.0054074735 -0.016440013 0.10511699 -0.07883098 0.029667191 -0.017537065
-0.017785413 0.040781923 -0.053803697 0.032979276 0.08966274 -0.028499823 -0.13474701 -0.007171159
-0.030894917 -0.07735746 0.08381972 -0.0039845267 -0.08904667 0.09614011 0.085888624 -0.07286904
0.04228657 -0.08107052 -0.055877738 -0.032390144 0.05580596 -0.053221527 -0.029263182 -0.04724823
-0.01743203 -0.10003185 -0.054485112 -0.0005988663 0.0728058 0.06381412 -0.16515018 0.07654039

base.main.7.bias f4 [512]
00000000: 324e bd3b a877 0abc f678 babb 05c5 1e3b
00000010: fe75 1ebc 439f 93bb bfce 203a edd1 0d3d
00000020: dc1e 70bc a852 cdbb 7e17 013c 62ce 36bc
00000030: 2025 f0bc c957 91bc e817 2bbc da4f c4bc
00000040: 8140 cbbc af8d 223b 6147 26bc f6f6 04bb
00000050: c7d7 e23c f527 10bc b999 9a3c a083 4ebc
00000060: b0a1 b03c 28bd 98bc 0000 0000 ecf2 fdba
00000070: b868 df3b a368 ff3c 0000 0000 fb6c c93c
00000080: 6525 d63c 9ab5 8b3c 7aa6 17bc 1b6f 29bb
00000090: 30b8 05bc 7e4a d6bb f2c5 b2bb 84f1 dd3b
000000a0: af82 a9bb 3c12 a6bc 9991 2d3d 69c5 1a3c
000000b0: aec8 65bc 4202 f3bb 2036 cb39 b36c f53c
000000c0: eeb4 8bbb 9893 d03c 8f74 4d3d 1b57 8fbc
000000d0: 39e6 abbc 04f0 f0bc e4bd 653c 90fe 9dbb
000000e0: 74ab acbc b85d 5dbc e03d 80bb d9ca 2bbc
000000f0: e56c 9c3c d41e 12bc dd47 a0bb eb5d 79bc
00000100: a0fa f6bb c786 64bb 1d68 083c 4886 983b
00000110: d0fa 71bb 88f6 223d 9805 d1bb 0f80 9a3c
00000120: 63d2 80ba c0d6 c3bb a010 3dbc 2e14 b6bc
00000130: b6ca 15bc 4c15 ae3c 384a 543a 4286 dfbb
00000140: 884c ca3b 8b0f 2cbc 7c1d 423b cda1 48bc
00000150: 3415 cdbb 7a27 3ebc 7013 debb 3750 afbc
00000160: 04a4 9e3c c649 20bc b65e abbb fd7e a4bc
00000170: c90c c63b f5ee a13c e33e c9bc a0fe 07b9
00000180: 36af 69bc a386 663c 913a 85bb b7d8 b7bc
00000190: 681e 023d 4bc7 e5bc ec2e e9ba 6a9b 8fbc
000001a0: 4df0 52bc 487d c0bb f820 05bb b03d e5b9
000001b0: c0e6 4b3a 04b9 033d 0305 bc3c 8a7e 813b
000001c0: 4218 f3bb 61b7 95bc df27 cebb 020f cebb
000001d0: 2331 9d3c b46e 92bc 7e62 c43c 8651 bc3c
000001e0: 1429 1fbc 0358 423d 40c0 8dbc 958c c73c
000001f0: 5a4c 08bc 7abb 823b 0000 0000 0ec2 59bc
00000200: 3955 463c fee7 a0bb 7e01 ed3b f613 dc3b
00000210: 5b40 87bc d395 133d 2c69 64bb 23c1 de3c
00000220: 3d1c c0bc 1dec 293d 56aa a5bc 446c 97bc
00000230: becc b9bc 0000 0000 2724 89bb 044e 4a3c
00000240: 7df0 fc3a 4c34 c6ba 9e8e 5f3c 8843 223d
00000250: 345c 28bc db07 a3bc 7eb9 ae3c 0000 0000
00000260: 6b4b 72bb cc4a 6b3c 17a9 c23c f5b1 b9bb
00000270: 9f4b b7bb 1189 4dbc 6a98 63bb 5156 3fbb
00000280: 3964 853c 5357 1f3d 4467 68bc fda7 e1bc
00000290: ab5c 843c 5a53 063d 87d6 a2bb bc14 023d
000002a0: 3493 6dbc 18c4 903c 7885 b03a 44b8 c8bb
000002b0: b6a4 b7bb 0000 0000 3487 9dbb dff8 223d
000002c0: d4c5 abbb 0e8f 15bb a180 0bbc 7bbe 55bb
000002d0: b0c8 61bc 038f 9fbc d6bd e4bb fd74 c8bb
000002e0: a6d7 923b dbd1 9fbb 6da6 0dbb da61 aebb
000002f0: 0f90 cabb 7254 afbb 1414 c1bc 76a9 76bb
00000300: 58ad 623b 97f8 053d 0000 0000 3517 a03c
00000310: dc54 71bb 9600 65bc 7a95 3abc c63b ee3c
00000320: 79e3 cbbb 7467 d9bb dd21 6abc 9498 eaba
00000330: 8e43 c63b 88b6 813b 717f db3b 0000 0000
00000340: 3ac5 ecbc 5613 353b 57d5 fd3c 9328 e4bb
00000350: 764c adbb 387f 01bd da2d 83bc 8a8c 9bbb
00000360: a87d 2f3a 275d 443b 6112 853c cee1 083c
00000370: fdbb cebb 34ff 893a 0000 0000 600e a2ba
00000380: 6edb 453c 7bc5 18ba 2f2e fc3c f912 193d
00000390: 2504 033d 4a6b a6bb 9c05 2dbc edb9 b1bb
000003a0: 1b62 99bb e69f 3abc 0e50 973b 434d d7bc
000003b0: 975a 073c e897 65ba 8b3d c4bc 7265 983a
000003c0: c4ed 633b ad16 153d 8d57 43bb 0000 0000
000003d0: a284 ca3b efef 57bc f06f 0a39 15ad 8ebc
000003e0: 205c bdbc 0000 0000 920b 443c f1bc 49bb
000003f0: 8195 823c 17ea 273d acaa dabb 2fd4 71bc
0.005777144 -0.00845138 -0.005690689 0.002422632 -0.009671686 -0.0045050695 0.0006134323 0.03462403
-0.014655795 -0.006265957 0.007879136 -0.011157604 -0.029314578 -0.017742055 -0.010442711 -0.023963857
-0.024811031 0.0024803688 -0.010148854 -0.0020288802 0.027690781 -0.008798589 0.018872129 -0.012604624
0.021561474 -0.018644884 0.0 -0.0019374765 0.0068179034 0.031177824 0.0 0.024588099
0.026140878 0.017054368 -0.009256 -0.0025853578 -0.0081615895 -0.006539642 -0.005455726 0.0067731757
-0.0051730494 -0.020272367 0.04237518 0.00944648 -0.014024897 -0.0074160406 0.00038759504 0.029959058
-0.004263512 0.025461003 0.050159987 -0.01749759 -0.020983802 -0.029411323 0.014022324 -0.004821606
-0.021077849 -0.013511114 -0.003913626 -0.010485374 0.019094894 -0.008918483 -0.0048913793 -0.015220146
-0.007537201 -0.0034870373 0.008325604 0.0046546794 -0.0036923178 0.03978589 -0.0063788407 0.018859891
-0.0009828325 -0.005976528 -0.011539608 -0.02222642 -0.009142568 0.02125039 0.00080982177 -0.0068214247
0.006173674 -0.010501753 0.0029619625 -0.012245608 -0.006258631 -0.011606092 -0.0067772195 -0.021400554
0.019365318 -0.009783214 -0.0052297963 -0.020080084 0.0060440046 0.019767264 -0.02456612 -0.00012969458
-0.014262965 0.014070186 -0.0040658196 -0.022442205 0.03176728 -0.028049132 -0.0017790473 -0.017530162
-0.012874675 -0.0058743097 -0.002031384 -0.00043724244 0.000777822 0.032158867 0.022951609 0.003951852
-0.0074186632 -0.018275918 -0.006291374 -0.00628841 0.01918847 -0.017875053 0.023972746 0.022988092
-0.009714384 0.047447216 -0.017303586 0.024359027 -0.008318985 0.003989634 0.0 -0.013290895
0.01210528 -0.004910468 0.007232844 0.0067162467 -0.01651018 0.036031555 -0.0034852726 0.027191704
-0.023450965 0.04148494 -0.020222824 -0.018484242 -0.022680636 0.0 -0.004185218 0.012347702
0.0019297745 -0.0015121787 0.013644842 0.039615184 -0.010275889 -0.019901207 0.021328684 0.0
-0.0036971222 0.014361095 0.023762269 -0.005666966 -0.0055937315 -0.012544886 -0.0034728297 -0.0029195736
0.016283141 0.03890164 -0.014184777 -0.027545923 0.016157469 0.032794334 -0.0049694213 0.031758055
-0.014500428 0.01767163 0.0013467511 -0.006125482 -0.005604352 0.0 -0.0048073772 0.039788123
-0.005242089 -0.0022820863 -0.008514554 -0.0032614756 -0.013780758 -0.019477373 -0.006980638 -0.0061174617
0.0044812737 -0.0048773116 -0.002161409 -0.0053217234 -0.006181724 -0.005350643 -0.023569144 -0.0037637628
0.0034588184 0.032707777 0.0 0.019542316 -0.0036824262 -0.0139771905 -0.011388177 0.029081237
-0.006222185 -0.006634647 -0.0142903 -0.0017898255 0.0060505336 0.003958527 0.006698542 0.0
-0.028902639 0.0027629933 0.030985517 -0.0069628446 -0.005288656 -0.031615466 -0.016013075 -0.004746978
0.00066944445 0.002996275 0.016244115 0.008354617 -0.006309031 0.0010528327 0.0 -0.0012363903
0.012076242 -0.0005827767 0.03078374 0.03737161 0.031986374 -0.005078708 -0.010560419 -0.0054237754
-0.0046808845 -0.011390662 0.0046176976 -0.026281958 0.008261344 -0.00087582925 -0.023955127 0.0011626913
0.003477917 0.03639858 -0.0029806823 0.0 0.006180362 -0.013179763 0.00013202406 -0.017416516
-0.023115218 0.0 0.011965649 -0.0030782784 0.01594043 0.04099473 -0.0066731777 -0.014760061

base.critic_linear.weight f4 [1, 512]
00000000: 91a4 9b3c 5d98 55bc c3b2 583c c30d 683d
00000010: c831 f7b9 c30f 693d 5684 aa3c 15a7 243d
00000020: 8fab d6bc f1ff 073d 89a9 fe3c 67fc 2abc
00000030: 8ec6 e5bd 2193 31bd f860 a1bc 6ae5 0abd
00000040: 47fe 67bd be17 6ebd 000b 0cbb d1f9 6bbd
00000050: 35f7 833d 9905 2dbb 0fb9 8c3d cc49 84ba
00000060: 5773 ba3c c6f8 89b9 3a89 a03a b969 4cbc
00000070: 23c0 813d db14 f13c e8f1 c63c 6413 c73b
00000080: 0707 413d 9800 a53b b031 84bd 627f feba
00000090: e8ed e5bb 0e30 723d cce6 643d e688 1b3b
000000a0: fc5e fcbb 2136 53bc 07ce 2c3d 700c 053d
000000b0: ca9e 33bd 1610 e13b d7d6 083d a4b0 6b3c
000000c0: 02f6 d6bc 73d1 e53c d2f0 1c3c f41d 97bc
000000d0: 26ab 8ebc 4588 0bbe be2a b43b 1a5c 5cbb
000000e0: dc79 97bc 24db d439 7d87 0abd 322a a33c
000000f0: 1aef 153d a751 453d 58c9 403b 3a32 0bbb
00000100: 12ce 6e3c 16dc 473b 2435 733d 39fe 483d
00000110: c63d 5d3b 8e62 5a3d ff25 c2bc c952 0f3c
00000120: 43e3 31bd 2e6b 953c bcf7 75bb 3ff2 29bd
00000130: aea1 1cbc 2405 ed3d 7c88 c2bb ef93 a9bd
00000140: acab f53a c096 563d 99a1 c0bc 96d1 f8bb
00000150: b337 de3c e9b5 18bc c93e a03c e118 ffbc
00000160: c8dd 1f3c ce7e cfbc 7664 023d b535 12bd
00000170: 26b8 68bd 5020 b73c 3052 87bb 30ae 58bd
00000180: e6a8 3bbc a387 0a3d 2f1d 3cba d99b f7bb
00000190: 15e2 183d 2859 81bd 44b3 1dbd 035f 163d
000001a0: 531f a73d 7ace b43b 00f8 8cbd ff99 e5bc
000001b0: 2fc8 22bc 489d 943c 2399 ce3b 6e70 5e39
000001c0: 4e66 21bd 049d 093c ac8a 093d f31c 0c3d
000001d0: 82df 963c 065c 7fbc 8d66 413c 576b 963c
000001e0: a4a3 07bd 5489 9d3c bd6f 49bd 353c 6e3c
000001f0: ac0f 06bd 85fa 5a3c 2b9f ecbc e1f0 11bc
00000200: 1be6 263b 206d 20b8 2c2b ae39 66db 2c3d
00000210: a666 1bbd 9f81 f23d cd68 bd3c 2b6a b93d
00000220: e2f7 e3bb 03c5 5a3c eff5 8bbc 9662 783d
00000230: 1581 6fbd d6c4 de3c 1347 61bb 6dcd 2c3c
00000240: 7f74 a9bc ebcf 983b 34bd 413d d3fb c03d
00000250: 797b 24bb 5318 98bc 7088 843b 6274 703d
00000260: c430 e9ba 451b ab3c 6cc2 543d d36d d9bc
00000270: 2692 bf3c fdd0 d93c f407 25bd e0f1 80bc
00000280: ac6a 893d 1e4b 573d a20d 09bb d041 33bc
00000290: 930c 48bd a83d c53c 76f9 f23c cc85 5a3d
000002a0: ebe0 dcbc 8838 243d fed8 a83c 5923 d33c
000002b0: b811 2a3b 257e e93c 9904 f1b9 3227 5a3d
000002c0: 65a6 bfbb 65f8 49bd f8c6 f9bb 2656 c33b
000002d0: 215a 18bc 18d1 99bc b8fa a1bb c87b aeba
000002e0: 26e8 72bd 7a32 60bc 653a d53b 51ad c53d
000002f0: a24d e33c c68c 593d 125e a2bc 47ab 7abb
00000300: ace0 92bc 9065 013c b935 81bd 121d 4e3d
00000310: 4a79 34bd 9b80 b4bb 8ff2 8bbc 3800 193d
00000320: 6659 2d3d 2415 9e3d 6816 febc 479e d0ba
00000330: d27a 923a c28b c63b 0662 243d e042 50bc
00000340: 8f55 50bd 9f2a 233c b897 933c 07cd 64bc
00000350: b04c 07ba dd67 a9bd 7274 1f3d eaa4 3bbc
00000360: 59db d33d 5d51 323d 596f 0a3d e2cb 5a3c
00000370: bf2a 49bd 3d21 cc3c 52f1 2bbd 85ad 99bd
00000380: f871 d63c c681 db3c e94c 0a3c 9043 cf3b
00000390: 4bf0 4b3c 28de 203d 500c 543d fb33 5ebd
000003a0: 60b7 7abc f91d 703b cca9 893c c671 97bc
000003b0: 4f1f f5bd 3fb7 b83c b368 45bd 3d52 0b3d
000003c0: 1a51 6b3b a365 333c 454d 33bd ce9f 87bc
000003d0: bc40 32bd 4437 4bbc da3d 8f3d d854 b2bc
000003e0: 8357 54bd 5c32 adbd aea2 59bd 3a8a 9ebd
000003f0: 1922 2b3c 7abc 3f3d 3626 3abc c9c1 9ebb
0.01899937 -0.0130368145 0.013226214 0.05665375 -0.000471486 0.056899797 0.020815056 0.040198404
-0.026204852 0.03320307 0.0310867 -0.010436154 -0.11219512 -0.043353204 -0.019699559 -0.033910193
-0.056638982 -0.05812811 -0.0021368861 -0.05761129 0.064436354 -0.0026401042 0.068712346 -0.0010092794
0.022760076 -0.00026316027 0.0012247928 -0.012476378 0.06335475 0.02942889 0.024285272 0.0060753096
0.047125842 0.005035471 -0.0645479 -0.0019416625 -0.007016886 0.05912786 0.055884168 0.002373272
-0.0077017527 -0.012891323 0.04218867 0.032482564 -0.043852605 0.0068683727 0.033408012 0.014385376
-0.026240353 0.028053975 0.0095789 -0.0184469 -0.017415594 -0.13626201 0.0054982593 -0.0033624233
-0.018490724 0.00040599064 -0.033820618 0.019917581 0.03660498 0.048173573 0.0029416885 -0.0021239654
0.014575498 0.0030496172 0.05937685 0.04907057 0.0033758744 0.053316645 -0.023699759 0.008747765
-0.043429624 0.018239584 -0.0037531694 -0.04149079 -0.009560032 0.11573246 -0.0059366804 -0.08280169
0.0018743179 0.05238986 -0.023514556 -0.007593344 0.027126169 -0.0093207145 0.019561188 -0.031139793
0.009757467 -0.02532902 0.03183409 -0.03569575 -0.056816243 0.022354275 -0.0041296706 -0.052900493
-0.011453843 0.03382076 -0.00071759796 -0.0075564203 0.037324984 -0.06315833 -0.03850104 0.036711704
0.081602715 0.005517778 -0.0688324 -0.028027533 -0.009935423 0.018141404 0.0063048764 0.00021213453
-0.039404206 0.008399252 0.033579513 0.034207296 0.018417124 -0.015585905 0.011804235 0.01836173
-0.033115044 0.019230522 -0.049178828 0.014540722 -0.03272979 0.013365393 -0.028884491 -0.008907528
0.0025466743 -3.8248603e-05 0.00033220032 0.042201422 -0.03793969 0.118411295 0.023121262 0.09053453
-0.00695704 0.013352635 -0.017085044 0.060640894 -0.05847271 0.027193468 -0.003437464 0.010547024
-0.020685432 0.0046634576 0.04729958 0.09423032 -0.002509801 -0.018566286 0.004044585 0.05870474
-0.0017791023 0.020887027 0.051943228 -0.026541626 0.023385119 0.026588911 -0.040290788 -0.015740335
0.06709799 0.05256187 -0.0020912667 -0.010940984 -0.048840117 0.024077252 0.029659968 0.053350255
-0.026962718 0.040092975 0.020611282 0.025773691 0.0025950503 0.028502533 -0.00045970528 0.053260036
-0.005848693 -0.049309153 -0.007622596 0.0059611974 -0.009298832 -0.018776461 -0.004943218 -0.0013312036
-0.059303425 -0.01368391 0.0065072053 0.09652198 0.02774698 0.053112768 -0.019820247 -0.0038249062
-0.017929398 0.00789775 -0.06309075 0.050320692 -0.044060983 -0.005508495 -0.017083434 0.037353724
0.042321585 0.07718876 -0.031016544 -0.0015916311 0.0011175519 0.006059141 0.040132545 -0.012711257
-0.050862845 0.009958892 0.018016681 -0.013964898 -0.00051612686 -0.082717635 0.03892941 -0.011452893
0.103445716 0.043534625 0.033797596 0.0133542735 -0.04911303 0.024918193 -0.041978188 -0.07503799
0.026177391 0.02679528 0.008441188 0.0063251927 0.012447427 0.039274365 0.051769555 -0.05424879
-0.015302509 0.003663896 0.016804598 -0.018486869 -0.11968862 0.022548316 -0.048195552 0.034013975
0.0035906495 0.010949525 -0.04377486 -0.016555693 -0.043518767 -0.012403313 0.06994219 -0.021768972
-0.05184127 -0.08456871 -0.05313366 -0.077412084 0.010445141 0.046810605 -0.011361649 -0.0048448783

dist.linear.weight f4 [4, 512]
00000000: 5e6a f5bb 44f7 133a 2c54 83bb 9f67 443b
00000010: 5809 05bc 58c7 0e39 b1ef cc3b 38e3 8dbb
00000020: b19e b43b 1968 a4bb e36f 13bc 5a20 c1ba
00000030: 1282 163c 4130 ea3a 4569 d23b 61f0 7b3b
00000040: 9817 61bb 907b 263c fb76 d3ba 5dca fc3b
00000050: f886 cbbb 1acd 0f3c 96e9 a33b 6ca4 bebb
00000060: 9a49 92bb 27a9 b83b fe86 0439 0f00 96bb
00000070: f472 d2bb 0f52 e0bb d422 b6b8 eed9 a7bb
00000080: 2184 fc3a 5256 a4bb c0f2 663b 43fd 1dbc
00000090: 775f 70bb 79cd eabb cc80 15bc 9e91 ff3b
000000a0: b9e7 b93b 54df 0f3b 6483 d9bb ef99 acba
000000b0: 6b88 4cbb 0e3b d1ba c756 9cbb 43bb 193b
000000c0: c498 70b9 d22e 38bc 68ab 00bc ef59 87bb
000000d0: 7af7 95ba eff6 8c3c 8487 393a e8bf 33bc
000000e0: 54c2 86bb 6976 13bc f69e 57bb 1c13 db3b
000000f0: dd2f 29bc c13b 2ebc 8ed7 14bc 4e7b 313c
00000100: 9c51 fc3a d053 96bb 873f 1cbc d98d 22ba
00000110: ab89 ab3a 333f c9bb c0ea 3fbc 47dd cbbb
00000120: ac18 44bb 0815 63bc 34f0 2d3c ba6b b2bc
00000130: e6aa c1bb 403b d9bb 24c8 e93a 58d3 bbbb
00000140: 94c3 6aba 9452 15bc b00e a839 6f8d 433b
00000150: e6fa 33bc 3e3e 333c c404 9d3b eabb e1b9
00000160: 96d1 b6ba 94db e8ba ff0d 80bc bf84 223c
00000170: 7bb0 e1bb 4aed 51bb e704 253c 3010 cdb9
00000180: 4170 0b3b 2a23 913a 2cdd 973a 6bd6 0dbc
00000190: a5e6 b1bb b114 943b 9d0c 98bb 9afc 043b
000001a0: b535 cd3b 861e 573b 3e2c 78bb 7b5f 9bbb
000001b0: 9856 3c3a b0a1 95ba b2d5 b93b 0b37 12bb
000001c0: 93ae 08bb 1805 eabb 3849 c5bb d4f0 ccbb
000001d0: 5b5f fcbb 1c26 363b 218c e3bb c256 c03a
000001e0: a597 fc3b 5258 653b 34f3 9abb a004 5c3b
000001f0: 254f e339 8149 3abc ab8a bb39 9b3e 533c
00000200: 6ea8 7cb9 706e f537 4185 8fbb 08c3 61bb
00000210: 3ea6 903c 101b 5fbb a2d3 e0ba c306 acbb
00000220: 0faf 12bc 91e7 89bc 9aad 0e3c a481 d7bb
00000230: 56fd c93b cb33 443a d5cf 1abc c15c 5a3b
00000240: faf9 a4bb 8849 0639 18af a53c eaf2 3ebc
00000250: a447 833c d6ec 5a3c 5c65 afbb 551d 4539
00000260: c8f6 e1b9 51e8 19bc a9cc 84bc 9ddc 7bbc
00000270: 67ad 61bc 4cea e2ba 5814 5a39 150f 89bb
00000280: a667 4abc aa00 1abc 276c c1bb 8e1a 0abc
00000290: 92e1 843b 4b4f 82bc a850 343b 72d6 ffb9
000002a0: e5c4 8cbc bad6 95bb 4ea9 d6bb 6e60 c8bb
000002b0: 3c78 cb3b 1870 1aba 625f a6ba 1045 7bbb
000002c0: e87b 27bc ee57 2c3c fe23 4fba 98c0 b3bb
000002d0: ee23 173c 3108 bfba b802 42bc a989 1b3c
000002e0: d8be c33a fdba 5e3b 1b33 debb 5e91 1abc
000002f0: 5cd6 f7bb 3141 b63b a9ec 18bc da8a b4bb
00000300: 69b9 c63b 5872 c8ba 1f54 8039 b200 8dbc
00000310: 4822 c2bb adea b3bb bb81 80ba fd4b f0bb
00000320: 551b 0cbb a10c 86bb 2891 b7ba 02c2 f73b
00000330: 3c3b dcbb e047 1bbc 9245 c4bb 5486 c5b9
00000340: dbf6 afbb 3e60 0fbc d845 c73b bc3c 443c
00000350: df0e d3bb faed 61bc 6dd1 20bc 5799 e1ba
00000360: 7a36 9bbb 6459 17bc e08a 893b ca83 2f3b
00000370: f06f 1dbc ab3b 40bc eb26 1c3a 6c65 ceba
00000380: 7cdf 3f3c 2a98 73bc 4485 62bc 5472 f8bb
00000390: eb54 4ebc 6b99 ee3a c4c5 e13a bf44 d33b
000003a0: 0e4d 47bb 7e24 8a3c dc26 2c3c f163 82b9
000003b0: 64a5 7b39 1818 073b 9591 1d3c a090 32ba
000003c0: 634e 1e3b 5d31 77ba 0fbd 3c3c 175b 6e38
000003d0: 52c3 f93b 9440 e939 ca2c 1bbc af17 98bb
000003e0: afce 853c 8b39 31b7 3c4e 923b a8d1 99bb
000003f0: 97c4 7fbb ed99 11bc b877 cdbb 2cbc bc3a
-0.0074894866 0.00056444504 -0.004007837 0.002996899 -0.0081199035 0.00013616437 0.0062541594 -0.004330065
0.0055120816 -0.005017292 -0.008998844 -0.0014734373 0.009186285 0.0017867164 0.0064212405 0.0038442838
-0.0034346338 0.0101612955 -0.0016133481 0.0077145533 -0.006211158 0.008776927 0.005002211 -0.0058179405
-0.0044643404 0.005635399 0.0001263879 -0.0045776437 -0.006422395 -0.0068457196 -8.6849235e-05 -0.005122415
0.0019265452 -0.005015173 0.0035239905 -0.009642902 -0.0036677995 -0.0071656075 -0.009124946 0.0077993413
0.0056733754 0.0021953182 -0.0066379774 -0.0013168434 -0.003120924 -0.0015963034 -0.004771087 0.0023457564
-0.00022945093 -0.011241632 -0.007853366 -0.004130594 -0.0011441552 0.01720759 0.00070773833 -0.010971047
-0.004112521 -0.009000399 -0.0032901145 0.0066856276 -0.010326353 -0.010634364 -0.009084595 0.010832621
0.0019250396 -0.004587628 -0.0095366305 -0.00062009465 0.0013087293 -0.006141567 -0.011713684 -0.0062214467
-0.0029921932 -0.013859995 0.010616351 -0.021779884 -0.0059102653 -0.0066293776 0.0017836136 -0.0057319812
-0.0008955535 -0.009113926 0.000320544 0.002983894 -0.010985112 0.010940133 0.004791828 -0.0004305535
-0.001394796 -0.0017765635 -0.015631674 0.009919344 -0.006887493 -0.0032032304 0.01007197 -0.00039112708
0.0021276625 0.0011073102 0.00115863 -0.008657078 -0.0054291063 0.004519068 -0.0046401755 0.0020292164
0.006262506 0.003282459 -0.0037868167 -0.004741607 0.00071845343 -0.0011415984 0.0056712264 -0.002231064
-0.0020856007 -0.0071417205 -0.0060206912 -0.006254295 -0.007701797 0.002779371 -0.006944195 0.0014674293
0.007708507 0.003499527 -0.004728699 0.0033572093 0.0004335578 -0.011370064 0.00035770735 0.012893344
-0.00024095338 2.9257702e-05 -0.004379899 -0.0034448523 0.017657395 -0.003404323 -0.0017152915 -0.0052498295
-0.00895287 -0.016834052 0.008708382 -0.0065767337 0.006164233 0.00074845244 -0.009448965 0.0033319446
-0.0050346823 0.00012806628 0.020225093 -0.011654595 0.016025372 0.01336213 -0.005352659 0.00018798311
-0.0004309921 -0.009393767 -0.01621087 -0.0153724225 -0.0137742525 -0.0017312258 0.00020797679 -0.004182706
-0.012353813 -0.009399572 -0.0059027853 -0.008429183 0.0040552104 -0.01590695 0.0027513895 -0.00048797164
-0.01718373 -0.0045727165 -0.0065509444 -0.006115011 0.0062094014 -0.0005891337 -0.0012693221 -0.0038340725
-0.010222413 0.010519011 -0.00079017866 -0.0054856054 0.009224875 -0.0014574585 -0.0118414685 0.00949327
0.0014934195 0.0033985965 -0.0067809946 -0.009434072 -0.0075633954 0.0055619706 -0.009333768 -0.0055097165
0.006064583 -0.0015292866 0.00024476738 -0.017212246 -0.005924497 -0.005490622 -0.0009804288 -0.0073332773
-0.0021378596 -0.004090861 -0.0014005052 0.0075609693 -0.0067209285 -0.009477586 -0.0059897387 -0.0003767485
-0.0053700036 -0.008750973 0.006081324 0.011977371 -0.0064409818 -0.013789648 -0.009815556 -0.0017211837
-0.0047367187 -0.009237621 0.0041974634 0.0026781433 -0.0096092075 -0.011732976 0.0005956727 -0.0015746779
0.011710998 -0.014867822 -0.013825718 -0.0075819883 -0.012593488 0.0018203681 0.0017225076 0.006447404
-0.0030410918 0.016863104 0.010507312 -0.00024869994 0.00023998838 0.0020613726 0.009617229 -0.0006811712
0.002415561 -0.0009429658 0.011519684 5.6828456e-05 0.007622161 0.00044489338 -0.009471128 -0.004641495
0.016333906 -1.056342e-05 0.0044648927 -0.0046941824 -0.0039027089 -0.008886796 -0.006270375 0.0014399341

dist.linear.bias f4 [4]
00000000: 4eed 1fbb 892d 293c 667b 713a a10a 993b
-0.002440292 0.010325798 0.0009211808 0.0046704565
